…
_scale=None, tokenizer=None, total_num_update=2036, train_subset='train', truncate_sequence=False, update_freq=[8], use_bmuf=False, user_dir=None, valid_subset='valid', validate_interval=1, warmup_updates=122, weight_decay=0.1, yopo_steps=1)
| [input] dictionary: 50265 types
| [label] dictionary: 9 types
| loaded 277 examples from: RTE-bin/input0/valid
| loaded 277 examples from: RTE-bin/input1/valid
| loaded 277 examples from: RTE-bin/label/valid
| Loaded valid with #samples: 277
RobertaModel(
  (decoder): RobertaEncoder(
    (sentence_encoder): TransformerSentenceEncoder(
      (embed_tokens): Embedding(50265, 1024, padding_idx=1)
      (embed_positions): LearnedPositionalEmbedding(514, 1024, padding_idx=1)
      (layers): ModuleList(
        (0): TransformerSentenceEncoderLayer(
          (self_attn): MultiheadAttention(
            (out_proj): Linear(in_features=1024, out_features=1024, bias=True)
            (mhj): MultiheadAttentionJob()
          )
          (self_attn_layer_norm): LayerNorm((1024,), eps=1e-05, elementwise_affine=True)
          (fc1): Linear(in_features=1024, out_features=4096, bias=True)
          (fc2): Linear(in_features=4096, out_features=1024, bias=True)
          (final_layer_norm): LayerNorm((1024,), eps=1e-05, elementwise_affine=True)
        )
        (1): TransformerSentenceEncoderLayer(
          (self_attn): MultiheadAttention(
            (out_proj): Linear(in_features=1024, out_features=1024, bias=True)
            (mhj): MultiheadAttentionJob()
          )
          (self_attn_layer_norm): LayerNorm((1024,), eps=1e-05, elementwise_affine=True)
          (fc1): Linear(in_features=1024, out_features=4096, bias=True)
          (fc2): Linear(in_features=4096, out_features=1024, bias=True)
          (final_layer_norm): LayerNorm((1024,), eps=1e-05, elementwise_affine=True)
        )
        (2): TransformerSentenceEncoderLayer(
          (self_attn): MultiheadAttention(
            (out_proj): Linear(in_features=1024, out_features=1024, bias=True)
            (mhj): MultiheadAttentionJob()
          )
          (self_attn_layer_norm): LayerNorm((1024,), eps=1e-05, elementwise_affine=True)
          (fc1): Linear(in_features=1024, out_features=4096, bias=True)
          (fc2): Linear(in_features=4096, out_features=1024, bias=True)
          (final_layer_norm): LayerNorm((1024,), eps=1e-05, elementwise_affine=True)
        )
        (3): TransformerSentenceEncoderLayer(
          (self_attn): MultiheadAttention(
            (out_proj): Linear(in_features=1024, out_features=1024, bias=True)
            (mhj): MultiheadAttentionJob()
          )
          (self_attn_layer_norm): LayerNorm((1024,), eps=1e-05, elementwise_affine=True)
          (fc1): Linear(in_features=1024, out_features=4096, bias=True)
          (fc2): Linear(in_features=4096, out_features=1024, bias=True)
          (final_layer_norm): LayerNorm((1024,), eps=1e-05, elementwise_affine=True)
        )
        (4): TransformerSentenceEncoderLayer(
          (self_attn): MultiheadAttention(
            (out_proj): Linear(in_features=1024, out_features=1024, bias=True)
            (mhj): MultiheadAttentionJob()
          )
          (self_attn_layer_norm): LayerNorm((1024,), eps=1e-05, elementwise_affine=True)
          (fc1): Linear(in_features=1024, out_features=4096, bias=True)
          (fc2): Linear(in_features=4096, out_features=1024, bias=True)
          (final_layer_norm): LayerNorm((1024,), eps=1e-05, elementwise_affine=True)
        )
        (5): TransformerSentenceEncoderLayer(
          (self_attn): MultiheadAttention(
            (out_proj): Linear(in_features=1024, out_features=1024, bias=True)
            (mhj): MultiheadAttentionJob()
          )
          (self_attn_layer_norm): LayerNorm((1024,), eps=1e-05, elementwise_affine=True)
          (fc1): Linear(in_features=1024, out_features=4096, bias=True)
          (fc2): Linear(in_features=4096, out_features=1024, bias=True)
          (final_layer_norm): LayerNorm((1024,), eps=1e-05, elementwise_affine=True)
        )
        (6): TransformerSentenceEncoderLayer(
          (self_attn): MultiheadAttention(
            (out_proj): Linear(in_features=1024, out_features=1024, bias=True)
            (mhj): MultiheadAttentionJob()
          )
          (self_attn_layer_norm): LayerNorm((1024,), eps=1e-05, elementwise_affine=True)
          (fc1): Linear(in_features=1024, out_features=4096, bias=True)
          (fc2): Linear(in_features=4096, out_features=1024, bias=True)
          (final_layer_norm): LayerNorm((1024,), eps=1e-05, elementwise_affine=True)
        )
        (7): TransformerSentenceEncoderLayer(
          (self_attn): MultiheadAttention(
            (out_proj): Linear(in_features=1024, out_features=1024, bias=True)
            (mhj): MultiheadAttentionJob()
          )
          (self_attn_layer_norm): LayerNorm((1024,), eps=1e-05, elementwise_affine=True)
          (fc1): Linear(in_features=1024, out_features=4096, bias=True)
          (fc2): Linear(in_features=4096, out_features=1024, bias=True)
          (final_layer_norm): LayerNorm((1024,), eps=1e-05, elementwise_affine=True)
        )
        (8): TransformerSentenceEncoderLayer(
          (self_attn): MultiheadAttention(
            (out_proj): Linear(in_features=1024, out_features=1024, bias=True)
            (mhj): MultiheadAttentionJob()
          )
          (self_attn_layer_norm): LayerNorm((1024,), eps=1e-05, elementwise_affine=True)
          (fc1): Linear(in_features=1024, out_features=4096, bias=True)
          (fc2): Linear(in_features=4096, out_features=1024, bias=True)
          (final_layer_norm): LayerNorm((1024,), eps=1e-05, elementwise_affine=True)
        )
        (9): TransformerSentenceEncoderLayer(
          (self_attn): MultiheadAttention(
            (out_proj): Linear(in_features=1024, out_features=1024, bias=True)
            (mhj): MultiheadAttentionJob()
          )
          (self_attn_layer_norm): LayerNorm((1024,), eps=1e-05, elementwise_affine=True)
          (fc1): Linear(in_features=1024, out_features=4096, bias=True)
          (fc2): Linear(in_features=4096, out_features=1024, bias=True)
          (final_layer_norm): LayerNorm((1024,), eps=1e-05, elementwise_affine=True)
        )
        (10): TransformerSentenceEncoderLayer(
          (self_attn): MultiheadAttention(
            (out_proj): Linear(in_features=1024, out_features=1024, bias=True)
            (mhj): MultiheadAttentionJob()
          )
          (self_attn_layer_norm): LayerNorm((1024,), eps=1e-05, elementwise_affine=True)
          (fc1): Linear(in_features=1024, out_features=4096, bias=True)
          (fc2): Linear(in_features=4096, out_features=1024, bias=True)
          (final_layer_norm): LayerNorm((1024,), eps=1e-05, elementwise_affine=True)
        )
        (11): TransformerSentenceEncoderLayer(
          (self_attn): MultiheadAttention(
            (out_proj): Linear(in_features=1024, out_features=1024, bias=True)
            (mhj): MultiheadAttentionJob()
          )
          (self_attn_layer_norm): LayerNorm((1024,), eps=1e-05, elementwise_affine=True)
          (fc1): Linear(in_features=1024, out_features=4096, bias=True)
          (fc2): Linear(in_features=4096, out_features=1024, bias=True)
          (final_layer_norm): LayerNorm((1024,), eps=1e-05, elementwise_affine=True)
        )
        (12): TransformerSentenceEncoderLayer(
          (self_attn): MultiheadAttention(
            (out_proj): Linear(in_features=1024, out_features=1024, bias=True)
            (mhj): MultiheadAttentionJob()
          )
          (self_attn_layer_norm): LayerNorm((1024,), eps=1e-05, elementwise_affine=True)
          (fc1): Linear(in_features=1024, out_features=4096, bias=True)
          (fc2): Linear(in_features=4096, out_features=1024, bias=True)
          (final_layer_norm): LayerNorm((1024,), eps=1e-05, elementwise_affine=True)
        )
        (13): TransformerSentenceEncoderLayer(
          (self_attn): MultiheadAttention(
            (out_proj): Linear(in_features=1024, out_features=1024, bias=True)
            (mhj): MultiheadAttentionJob()
          )
          (self_attn_layer_norm): LayerNorm((1024,), eps=1e-05, elementwise_affine=True)
          (fc1): Linear(in_features=1024, out_features=4096, bias=True)
          (fc2): Linear(in_features=4096, out_features=1024, bias=True)
          (final_layer_norm): LayerNorm((1024,), eps=1e-05, elementwise_affine=True)
        )
        (14): TransformerSentenceEncoderLayer(
          (self_attn): MultiheadAttention(
            (out_proj): Linear(in_features=1024, out_features=1024, bias=True)
            (mhj): MultiheadAttentionJob()
          )
          (self_attn_layer_norm): LayerNorm((1024,), eps=1e-05, elementwise_affine=True)
          (fc1): Linear(in_features=1024, out_features=4096, bias=True)
          (fc2): Linear(in_features=4096, out_features=1024, bias=True)
          (final_layer_norm): LayerNorm((1024,), eps=1e-05, elementwise_affine=True)
        )
        (15): TransformerSentenceEncoderLayer(
          (self_attn): MultiheadAttention(
            (out_proj): Linear(in_features=1024, out_features=1024, bias=True)
            (mhj): MultiheadAttentionJob()
          )
          (self_attn_layer_norm): LayerNorm((1024,), eps=1e-05, elementwise_affine=True)
          (fc1): Linear(in_features=1024, out_features=4096, bias=True)
          (fc2): Linear(in_features=4096, out_features=1024, bias=True)
          (final_layer_norm): LayerNorm((1024,), eps=1e-05, elementwise_affine=True)
        )
        (16): TransformerSentenceEncoderLayer(
          (self_attn): MultiheadAttention(
            (out_proj): Linear(in_features=1024, out_features=1024, bias=True)
            (mhj): MultiheadAttentionJob()
          )
          (self_attn_layer_norm): LayerNorm((1024,), eps=1e-05, elementwise_affine=True)
          (fc1): Linear(in_features=1024, out_features=4096, bias=True)
          (fc2): Linear(in_features=4096, out_features=1024, bias=True)
          (final_layer_norm): LayerNorm((1024,), eps=1e-05, elementwise_affine=True)
        )
        (17): TransformerSentenceEncoderLayer(
          (self_attn): MultiheadAttention(
            (out_proj): Linear(in_features=1024, out_features=1024, bias=True)
            (mhj): MultiheadAttentionJob()
          )
          (self_attn_layer_norm): LayerNorm((1024,), eps=1e-05, elementwise_affine=True)
          (fc1): Linear(in_features=1024, out_features=4096, bias=True)
          (fc2): Linear(in_features=4096, out_features=1024, bias=True)
          (final_layer_norm): LayerNorm((1024,), eps=1e-05, elementwise_affine=True)
        )
        (18): TransformerSentenceEncoderLayer(
          (self_attn): MultiheadAttention(
            (out_proj): Linear(in_features=1024, out_features=1024, bias=True)
            (mhj): MultiheadAttentionJob()
          )
          (self_attn_layer_norm): LayerNorm((1024,), eps=1e-05, elementwise_affine=True)
          (fc1): Linear(in_features=1024, out_features=4096, bias=True)
          (fc2): Linear(in_features=4096, out_features=1024, bias=True)
          (final_layer_norm): LayerNorm((1024,), eps=1e-05, elementwise_affine=True)
        )
        (19): TransformerSentenceEncoderLayer(
          (self_attn): MultiheadAttention(
            (out_proj): Linear(in_features=1024, out_features=1024, bias=True)
            (mhj): MultiheadAttentionJob()
          )
          (self_attn_layer_norm): LayerNorm((1024,), eps=1e-05, elementwise_affine=True)
          (fc1): Linear(in_features=1024, out_features=4096, bias=True)
          (fc2): Linear(in_features=4096, out_features=1024, bias=True)
          (final_layer_norm): LayerNorm((1024,), eps=1e-05, elementwise_affine=True)
        )
        (20): TransformerSentenceEncoderLayer(
          (self_attn): MultiheadAttention(
            (out_proj): Linear(in_features=1024, out_features=1024, bias=True)
            (mhj): MultiheadAttentionJob()
          )
          (self_attn_layer_norm): LayerNorm((1024,), eps=1e-05, elementwise_affine=True)
          (fc1): Linear(in_features=1024, out_features=4096, bias=True)
          (fc2): Linear(in_features=4096, out_features=1024, bias=True)
          (final_layer_norm): LayerNorm((1024,), eps=1e-05, elementwise_affine=True)
        )
        (21): TransformerSentenceEncoderLayer(
          (self_attn): MultiheadAttention(
            (out_proj): Linear(in_features=1024, out_features=1024, bias=True)
            (mhj): MultiheadAttentionJob()
          )
          (self_attn_layer_norm): LayerNorm((1024,), eps=1e-05, elementwise_affine=True)
          (fc1): Linear(in_features=1024, out_features=4096, bias=True)
          (fc2): Linear(in_features=4096, out_features=1024, bias=True)
          (final_layer_norm): LayerNorm((1024,), eps=1e-05, elementwise_affine=True)
        )
        (22): TransformerSentenceEncoderLayer(
          (self_attn): MultiheadAttention(
            (out_proj): Linear(in_features=1024, out_features=1024, bias=True)
            (mhj): MultiheadAttentionJob()
          )
          (self_attn_layer_norm): LayerNorm((1024,), eps=1e-05, elementwise_affine=True)
          (fc1): Linear(in_features=1024, out_features=4096, bias=True)
          (fc2): Linear(in_features=4096, out_features=1024, bias=True)
          (final_layer_norm): LayerNorm((1024,), eps=1e-05, elementwise_affine=True)
        )
        (23): TransformerSentenceEncoderLayer(
          (self_attn): MultiheadAttention(
            (out_proj): Linear(in_features=1024, out_features=1024, bias=True)
            (mhj): MultiheadAttentionJob()
          )
          (self_attn_layer_norm): LayerNorm((1024,), eps=1e-05, elementwise_affine=True)
          (fc1): Linear(in_features=1024, out_features=4096, bias=True)
          (fc2): Linear(in_features=4096, out_features=1024, bias=True)
          (final_layer_norm): LayerNorm((1024,), eps=1e-05, elementwise_affine=True)
        )
      )
      (emb_layer_norm): LayerNorm((1024,), eps=1e-05, elementwise_affine=True)
    )
    (lm_head): RobertaLMHead(
      (dense): Linear(in_features=1024, out_features=1024, bias=True)
      (layer_norm): LayerNorm((1024,), eps=1e-05, elementwise_affine=True)
    )
  )
  (classification_heads): ModuleDict(
    (sentence_classification_head): RobertaClassificationHead(
      (dense): Linear(in_features=1024, out_features=1024, bias=True)
      (dropout): Dropout(p=0.0, inplace=False)
      (out_proj): Linear(in_features=1024, out_features=2, bias=True)
    )
  )
)
| model roberta_large, criterion SentencePredictionCriterion
| num. model params: 356462683 (num. trained: 356462683)
| training on 1 GPUs
| max tokens per GPU = 4400 and max sentences per GPU = 2
| no existing checkpoint found pretrained/roberta.large/model.pt
| loading train data for epoch 0
| loaded 2490 examples from: RTE-bin/input0/train
…
